cv/第二次作业/model/model.pkl (torch, 874548 bytes, 6 tensors)

linear1.weight f4 [256, 784]
000000 96 36 fc 3c 4a c2 b0 3a fa fa cd bb 56 40 05 3d
       0.030787747 0.0013485637 -0.0062860223 0.03253206
000010 48 af 0b 3d 6f 41 b7 bc 85 74 af bc 05 9f c7 bc
       0.034102708 -0.022370068 -0.021417866 -0.024367819
000020 c1 ec 06 bd f1 9e d0 3c ee bf 90 bc fd 68 46 bc
       -0.03294063 0.025466414 -0.017669644 -0.012109992
000030 5f 12 0c bd 42 6f 05 bd 76 2e cd bc 53 fe 95 bc
       -0.034197208 -0.032576807 -0.025046568 -0.018309748
000040 2b e3 90 3c a1 bf 2f 3c 52 f6 a5 bb 06 3b 07 bd
       0.017686447 0.01072684 -0.005064764 -0.033015274
000050 05 7d bf 3c 8b 5a a9 3c af 20 cd bc 7f 9b f4 3c
       0.023375044 0.020673057 -0.025039999 0.029859303
000060 fe d7 a8 3b 25 8e e7 bc 74 a5 83 bc e3 36 bc 3c
       0.0051527014 -0.028266022 -0.016070105 0.02297539
000070 df 0d 0c 3c 1b c2 e5 3c 35 e3 d2 bc a5 9c ae bc
       0.008548229 0.028046658 -0.025743106 -0.021314928
000080 db bf d3 3c f4 91 1f 3c d4 f6 c5 3c 97 f5 5d 3c
       0.02584832 0.009739388 0.024165548 0.013547323
000090 3e 62 f0 3c ae a4 8f bc 49 18 0a 3d 0a 34 8e 3b
       0.02934372 -0.01753458 0.033714566 0.0043396996
0000a0 e4 34 0a bd 9e 04 99 3b c3 e7 87 bc 6f 48 b4 3c
       -0.033741847 0.00466974 -0.016590005 0.022007195
0000b0 e6 3b 9e bc f7 31 a3 bc 7a b0 27 bc d8 94 a6 3a
       -0.019315671 -0.019921286 -0.010234946 0.0012709154
0000c0 59 be aa 3b aa 2d c8 bc 81 0c cb bc 8a e5 b9 3b
       0.0052106795 -0.024435837 -0.024786236 0.005673115
0000d0 1e 30 0f 3c 25 a6 8c 3b 91 9c ad 3c f7 39 8f 3c
       0.008739499 0.004292267 0.02119282 0.017483694
0000e0 06 b1 eb bb 3f 07 02 3c a6 80 47 bc 97 f1 62 3c
       -0.0071927337 0.007936298 -0.012176668 0.013851545
0000f0 60 bd 5d bc aa e1 bc 3c c8 df b2 3c 60 3d aa 3c
       -0.01353392 0.023056824 0.021835223 0.020781219
000100 9f 52 90 3c a3 a6 a4 ba cf 92 f8 3c dd f4 ac 3b
       0.017617522 -0.0012561869 0.030343441 0.0052782134
000110 d3 19 1d b9 ea 1a e6 3c 26 88 d8 3c c6 27 10 3d
       -0.00014982307 0.028089006 0.026432108 0.03519418
000120 4c dc 1e 3b fb 46 3d bc e0 c0 1e 3b 1c 36 ea bb
       0.0024240194 -0.011552568 0.002422385 -0.0071475636
000130 7d 76 01 bc 6f 9a ef bc e8 1e 05 3d 8e 57 12 bd
       -0.007901785 -0.029248444 0.032500178 -0.03572803
000140 39 48 ac bc eb a1 7a bc b7 90 8c bc 8d c9 23 3c
       -0.021030532 -0.015297393 -0.01715885 0.009996784
000150 83 31 8e bc bf 04 f3 bc b6 06 89 3c 65 97 eb bc
       -0.017357593 -0.029665349 0.016726833 -0.028758714
000160 41 83 0c 3d d7 16 00 bc 86 85 d7 bc 7f fb 5b 3b
       0.03430486 -0.007817945 -0.026308786 0.0033566651
000170 4f 7c bf ba a2 12 88 3c ce 38 09 bd 70 31 43 3c
       -0.001460919 0.016610447 -0.03350144 0.011913642
000180 1b b4 1f bd 5b 2e e8 3c 1c db c3 3c d7 61 c2 bc
       -0.03899012 0.028342417 0.02390819 -0.023728294
000190 ba d5 7a 3c 4a bf 84 bb bf 5e ed bc 15 a6 06 bd
       0.015309745 -0.0040511237 -0.028975843 -0.032873232
0001a0 63 40 00 bd dc a8 15 bb f0 44 0e bc 51 8c f3 3c
       -0.031311404 -0.0022836244 -0.008683428 0.029729994
0001b0 af cf fb 3c 09 64 f6 3c 66 06 9b 3c 6c 52 6c 3b
       0.03073868 0.030076997 0.01892395 0.003605987
0001c0 18 ad be ba 63 c9 7c bc 51 8f 0e bd 58 37 db ba
       -0.0014547436 -0.015428874 -0.034804646 -0.0016724868
0001d0 a9 70 02 bd ff 8d ba 3c 41 c5 b9 bc 8d 5a 05 bd
       -0.031845722 0.022772787 -0.022677066 -0.03255706
0001e0 43 33 af bc d9 9d 3d bc 2a ab a1 bc f8 85 a4 3b
       -0.021386748 -0.011573278 -0.019734938 0.005020853
0001f0 13 c5 92 3c b9 b7 15 3c af 50 74 bc 46 9a f1 3c
       0.017916238 0.009138041 -0.014911815 0.029492509
000200 fd 4c 60 3c fc 9e 10 3c cd ec 26 3c 83 26 ae 3c
       0.01369023 0.008826967 0.010188294 0.021258598
000210 ea 26 a1 3c a8 01 8f 3c d1 73 9c 3c e5 24 cc 3c
       0.019671876 0.017456844 0.019098194 0.024919936
000220 8b f3 76 bc 18 eb 13 bd 46 89 23 3c d5 cc 28 3c
       -0.015072714 -0.036112875 0.009981459 0.010302742
000230 a5 c7 b7 ba 77 ee b4 3c 86 72 69 3b c1 21 54 bc
       -0.0014021291 0.022086365 0.003562124 -0.012947501
000240 0c 3c 28 3c 6d 2f a8 b9 90 40 6d bc b1 30 b7 3c
       0.010268223 -0.00032078792 -0.014480725 0.022362085
000250 a0 68 e0 bc b3 93 88 3c b6 17 10 bd 57 df 6a 3c
       -0.02739364 0.016671991 -0.035178863 0.014335475
000260 f3 34 e7 3a 22 7c 15 3d f0 9d 2d 3c fc 01 d5 bb
       0.0017639681 0.036495335 0.010596737 -0.0065004807
000270 aa 1f f7 bc f6 2a 90 ba fe 6d cd bb fc 8f e8 bc
       -0.030166466 -0.0010999131 -0.0062692156 -0.02838897
000280 6b 9c 7c 3c ab ee f5 bc e0 24 06 bc a4 10 76 3c
       0.015418152 -0.030021032 -0.008187503 0.015018616
000290 89 20 7d bc 32 7e 9c 3c 30 da da bc ae a3 0c 3d
       -0.0154496515 0.019103143 -0.026715368 0.034335785
0002a0 4f d3 5f bc 32 04 12 bd 23 4c b7 bc 57 b1 84 3c
       -0.01366122 -0.035648532 -0.022375172 0.016197843
0002b0 fb a0 fa bb a3 0e 0f bd 68 33 20 3b 20 1c 6e bc
       -0.007648585 -0.034926068 0.0024444703 -0.014533073
0002c0 d3 83 23 bd 59 2b e4 3c 0e 08 e5 bc 45 a1 c2 3c
       -0.03992064 0.027852701 -0.027957942 0.02375854
0002d0 d4 3b 7f bb 13 06 14 bd 03 c5 a6 3c 74 8c 26 bd
       -0.0038945572 -0.036138605 0.020357614 -0.04066129
0002e0 a9 74 50 bc f4 1c 31 3c df 0a 9a 3c 36 9a 57 3c
       -0.012723126 0.010810126 0.018804012 0.013159325
0002f0 2a db 5c bb d4 2e d5 3c b5 53 d7 3b b9 77 5d 3c
       -0.0033699968 0.026023306 0.006571258 0.013517314
000300 b9 a2 c8 3c 46 47 87 3c fb c5 4d 3c cc c5 e2 3b
       0.024491655 0.016513478 0.012559409 0.006920552
000310 1a f2 f6 bc 34 fc 0f bd 7e c3 c7 3c 8b 7a c7 3c
       -0.03014474 -0.03515263 0.02438521 0.024350425
000320 5b b6 d0 ba b9 37 51 3c 68 da 99 3b 21 8c 6f bc
       -0.0015923487 0.012769633 0.0046952255 -0.014620812
000330 76 ba 6f 3c 02 d8 f8 3c d9 17 62 3b 78 7a 03 bd
       0.014631858 0.030376438 0.0034499078 -0.032099217
000340 2a 3a a7 bb f4 a8 86 3c 9b 88 4f bb 99 bd 24 bc
       -0.0051033692 0.016437985 -0.0031667117 -0.010054969
000350 a2 09 e8 3c 27 ed 10 bd eb 1c 63 bb 2b 3e b6 3c
       0.028324906 -0.035382416 -0.0034654688 0.02224644
000360 36 e6 ec bc d7 d1 17 3d 1c d0 c9 3c 78 04 cd 3b
       -0.028918367 0.037065353 0.024635367 0.006256636
000370 98 41 b5 bc a2 57 8d 3c 03 58 0e 3b 44 11 68 bc
       -0.022126004 0.0172537 0.002171994 -0.014164273
000380 f1 c3 5c 3c 40 b7 0e 3d b5 16 81 3c b1 9c 92 bc
       0.01347445 0.03484273 0.015757898 -0.017896982
000390 df 37 98 bb 70 be a9 bc 4c 73 da bc bc 64 d2 bc
       -0.004645332 -0.02072069 -0.026666306 -0.0256828
0003a0 9c 92 cd 3c 11 10 04 3d cc 6a bd bc b2 c4 9d 3b
       0.025094323 0.032241885 -0.023122214 0.0048147077
0003b0 ab d5 0d b9 d9 3f 3d bc d6 fa f8 3b 6e 69 c9 3c
       -0.00013526405 -0.011550867 0.0075982613 0.024586406
0003c0 6b dd 3e 3c a3 f8 4a bc a1 a8 22 3d b6 12 cc 3c
       0.01164947 -0.012388381 0.0397116 0.024911266
0003d0 5a d0 c6 bc c3 b8 6e 3b 3e ec bd 3c 39 e8 a0 bc
       -0.024269272 0.0036426045 0.023183938 -0.019641982
0003e0 40 43 2b bd d6 48 09 bd 88 6c 03 bd ee 81 36 3c
       -0.04181218 -0.033516727 -0.032085925 0.011139376
0003f0 25 48 f0 bc 16 79 07 bc ca 72 07 bd 12 07 f0 bc
       -0.029331276 -0.008268615 -0.033068456 -0.029300246

linear1.bias f4 [256]
000000 b4 17 d4 3c b9 65 90 bc 61 fd 23 3d c7 56 3e bc
       0.025890209 -0.01762663 0.040036563 -0.011617369
000010 b6 ad 6f 3c 74 50 0d bc 32 00 11 3d c8 39 e2 3c
       0.014628818 -0.008625139 0.035400577 0.027615443
000020 4d fa 71 bc a8 d8 7c bc 98 dc 83 bc 8f 1c a8 bc
       -0.014769149 -0.015432514 -0.016096398 -0.02052143
000030 97 4b 2a ba 29 19 7e bc c6 a4 a7 3c 0f 1f 4b bc
       -0.0006496249 -0.015508928 0.020464312 -0.012397542
000040 05 fb c8 bc 04 c2 cd 3c ea ba 0a 3d 08 64 f8 3c
       -0.024533758 0.025116928 0.03386966 0.030321136
000050 df 79 ce 38 97 45 90 bc d3 c4 c1 3b 6e 19 44 bb
       9.845546e-05 -0.017611308 0.005913356 -0.0029922384
000060 3c 2c 80 3c 60 0a 22 3d 2b a8 a5 3c b7 3a 24 bc
       0.015646093 0.039560676 0.02022179 -0.010023764
000070 76 63 f2 3c fc 02 03 bd c5 29 28 39 56 45 ec 3b
       0.029588442 -0.031985268 0.00016037289 0.007210414
000080 f6 13 e4 bb e2 35 4f 3c 52 4e dd 3b c9 3f 22 3d
       -0.0069603873 0.012647124 0.0067537213 0.03961161
000090 8d 9a 40 3c 4f e2 88 3c aa 2b cb bb a3 ea 29 3c
       0.011755598 0.016709475 -0.0062002735 0.010370883
0000a0 55 4b ca 3c 2f ee 26 3d fd 99 b3 3c 62 3b 18 3b
       0.024694124 0.040754493 0.021924013 0.0023228754
0000b0 6f f5 f2 3c bb 59 02 bd 4f 41 f4 3c 9d 5b 44 bb
       0.029658047 -0.031823855 0.029816298 -0.0029961832
0000c0 19 8b 8c bb 80 ae 2a bb d4 50 25 3d 36 cb ff 3c
       -0.0042890427 -0.0026043952 0.040360287 0.031224828
0000d0 fd d0 b1 3c b6 b5 76 3c ec 71 13 3d f9 bf c3 3c
       0.021706099 0.015057972 0.035997316 0.02389525
0000e0 ae c0 06 bd c2 4d d5 3c c4 5e 49 bb 0a 49 ac bc
       -0.032898597 0.026038054 -0.003072665 -0.021030921
0000f0 5a d2 d1 bc a1 d8 32 bc d0 47 12 3d f2 91 e0 bc
       -0.025612999 -0.010915906 0.035713017 -0.027413342
000100 1a cb c6 bb 72 c7 57 3c 12 1f cf 3c b3 20 b8 bc
       -0.006066692 0.01317011 0.02528337 -0.02247653
000110 53 ef 16 3d 30 8a 30 bc 97 41 c5 3c 0b 82 d7 3c
       0.03684933 -0.010775134 0.024079127 0.026307127
000120 bd ee 05 bd 16 b9 e5 bc 90 80 ae 3c b8 9c ca bc
       -0.03269838 -0.028042357 0.021301538 -0.024732932
000130 8d 72 31 bb 91 a9 a7 3b 15 b1 7f 3c 74 8f fa 3c
       -0.0027076334 0.0051166494 0.0156061845 0.030585982
000140 fd 5e ea bc 8c 6d b4 bc dd 43 6e bc d2 1a 99 3c
       -0.028609747 -0.022024892 -0.014542547 0.018689547
000150 79 1e 62 3c 45 fc 46 bc 00 36 83 3c 59 aa d7 3c
       0.013801211 -0.012145107 0.01601696 0.026326345
000160 81 28 a6 3c bf ae 92 3c dd d1 58 3b d7 f3 37 bc
       0.020282986 0.017905591 0.0033084073 -0.01122757
000170 74 17 e4 3c d0 95 85 3c 79 1a bc 3c 71 92 a6 3c
       0.027843215 0.016306788 0.022961842 0.0203335
000180 00 1e 8e 3c 67 b5 89 ba e6 92 6d 3c a0 11 bb bc
       0.01734829 -0.0010506333 0.014500355 -0.022835553
000190 43 bb 40 3b e7 8e 38 3c 99 e1 a9 3c 17 a8 c4 3c
       0.0029408492 0.011264539 0.020737456 0.024005933
0001a0 e0 61 83 3c 56 c0 82 3b e4 45 79 bb 21 23 32 bc
       0.016037881 0.0039902134 -0.0038036043 -0.010872633
0001b0 69 1d bc 3c a0 ac b5 bc 1a 61 22 3c 3c 14 fe 3c
       0.022963243 -0.02217704 0.009910846 0.031015508
0001c0 3d bf 1a 3c 78 3c 06 bd f2 1b b0 bc 78 bb d3 bc
       0.009445009 -0.03277251 -0.0214977 -0.025846228
0001d0 25 49 a3 3c e5 04 3f bc a1 be ba 3c 8c ad 17 3d
       0.019932339 -0.011658882 0.022795977 0.03703074
0001e0 4e 20 0d 3d 7a 00 b4 3c c5 38 a7 bc 17 18 eb bb
       0.034454636 0.021972883 -0.020412812 -0.0071745026
0001f0 eb 3d c8 bc db 56 87 bc 86 73 14 3d d9 2e 04 3c
       -0.024443587 -0.016520908 0.036242984 0.00806781
000200 68 3e 99 3b 36 46 0c bc ef be b0 3c 33 f3 64 bc
       0.004676629 -0.0085616615 0.02157542 -0.013973999
000210 cb 40 08 3d a8 c3 6d bc f9 49 88 3a 82 ec ca 3c
       0.033264916 -0.01451198 0.0010398022 0.024770979
000220 26 2e c1 3c f9 8b 67 3c 6d ef 6e 3c d1 13 26 3d
       0.023581576 0.014132493 0.014583451 0.040546242
000230 13 ed b5 3c 05 7d 5c 3a 08 28 b6 bc 0a c7 06 bd
       0.022207772 0.00084109633 -0.022235885 -0.032904662
000240 81 17 ac bc 5d 8e d5 3c f1 1b d7 3c cf f0 90 bc
       -0.021007301 0.02606886 0.02625844 -0.017692951
000250 ad 0d db bc 11 ff 9a 3b b0 c9 88 3c ee 47 ed bc
       -0.02673992 0.0047301133 0.016697735 -0.028964963
000260 ff 12 b5 3b 3a 87 b3 3c dd fe 18 3d ac ad e7 b9
       0.005525946 0.021915067 0.03735243 -0.0004418915
000270 01 17 a0 bc f5 53 4d 3b d3 b2 4b bc 4c 14 b2 bc
       -0.01954222 0.003133056 -0.012432772 -0.021738194
000280 38 f4 dc 3c 70 93 89 bc 4e 8a a8 3a 4b c0 6e 3c
       0.026971921 -0.016793936 0.0012858601 0.014572213
000290 aa fa da bc cf 00 8a 3c 0b 38 8f bc bc 85 09 bc
       -0.026730854 0.016846089 -0.017482778 -0.008393701
0002a0 5c 8e a9 3c 5d c5 ee bc 92 24 76 3c 76 3c 60 bc
       0.020697765 -0.029146845 0.0150233675 -0.01368629
0002b0 ae 37 0f 3d 6d 77 04 3d 82 29 42 3c 5c 4b 0e bc
       0.03496521 0.032340456 0.011850717 -0.008684959
0002c0 af c0 81 bc 09 67 54 ba d9 99 b5 bc ac 11 1f bc
       -0.015838949 -0.00081025116 -0.022168087 -0.009708803
0002d0 60 ac 8b bc d3 de e1 3c 7a f4 78 bc 8c 77 b0 bc
       -0.017049968 0.027572071 -0.0151950065 -0.02154138
0002e0 63 96 7d 3c 0f 4f b8 3b 8a 3b 90 bc 0a 9c db 3a
       0.0154777495 0.005624659 -0.017606515 0.0016754877
0002f0 69 24 fe 3b fa 9d d9 3c e9 1e e7 3c 11 5b 08 bd
       0.0077558053 0.026564587 0.028212981 -0.033289973
000300 05 08 70 3c 51 94 cb bc ef a2 9f bb 54 0d 94 bc
       0.0146503495 -0.024850996 -0.004871718 -0.018072762
000310 ee 8f 6e 3c 54 2a a0 bc c8 0d 12 3d 31 0d ad ba
       0.014560683 -0.019551434 0.035657674 -0.0013202784
000320 4f 4b f3 bc e4 16 d2 bc 32 53 4b ba 34 1a 0e 3d
       -0.029698996 -0.02564568 -0.00077562325 0.034692958
000330 62 77 04 3d 9c c1 4b 3b 3e 8c 9a 3a fc c7 c6 3c
       0.032340415 0.0031090742 0.0011791063 0.024265282
000340 b0 bb c0 bb c4 48 d5 bc c4 2c af 3a 29 e7 ef bb
       -0.005881749 -0.026035674 0.0013364782 -0.0073212576
000350 b7 6a 17 3d 40 d2 a6 bc 53 ad b5 3c 8a 6d d0 3c
       0.036967006 -0.020363927 0.022177374 0.025442857
000360 29 49 e2 ba f5 83 7b 3c a1 76 3a 3c 56 a6 d3 3c
       -0.0017264235 0.015351285 0.011380822 0.025836151
000370 c1 6d c4 bb 5a 42 cd 3c 00 8e db 3b c6 e7 98 3c
       -0.005994529 0.025056053 0.0067002773 0.018665206
000380 1a f7 1d bc 7b 24 f2 3c 76 89 2c 3c eb 95 a9 3c
       -0.009641433 0.02955841 0.01053082 0.02070137
000390 f3 b1 52 bc 1b 2c 37 3b cd 92 25 3c d5 db a8 bc
       -0.012859809 0.0027949873 0.010105801 -0.020612637
0003a0 27 a6 04 bd 28 27 08 3d a9 c6 01 3d 4b 80 32 bc
       -0.032385018 0.033240467 0.031683598 -0.010894845
0003b0 30 14 99 bc 1a b2 ee bc 92 f1 3e bc 04 58 83 bc
       -0.018686384 -0.02913766 -0.011654275 -0.01603318
0003c0 3a 52 78 3c a4 cb d4 bc 56 29 c8 3c 78 22 eb 3b
       0.015156323 -0.02597601 0.024433773 0.00717574
0003d0 d5 c4 91 3c 91 43 35 3c 9e ef 3e bc 82 63 01 3d
       0.017794052 0.011063472 -0.011653809 0.03158904
0003e0 15 58 09 3d 4a 19 ca bc f3 ef 08 3d 7a 76 92 bc
       0.033531267 -0.024670262 0.03343196 -0.01787876
0003f0 26 4c 55 3c 86 55 15 bd 58 8d 9c 3b 05 0c 18 3c
       0.0130186435 -0.036458515 0.0047775917 0.009280209

linear2.weight f4 [64, 256]
000000 99 da 57 bd fb 4f 2d 3c 10 b5 39 bd 80 ca 96 3b
       -0.052698705 0.010578151 -0.04533869 0.0046017766
000010 80 00 87 bd a0 08 13 3d 5b 7a 43 bd 6d c7 34 3d
       -0.06591892 0.035896897 -0.04772411 0.0441355
000020 27 9f b1 3d ba be 25 bd b9 05 bf 3d f9 73 2b bd
       0.08672934 -0.040465094 0.093272634 -0.041858647
000030 2e 8b d0 bd cf e3 23 bd 3c ed 88 3d ad 15 51 3c
       -0.101827964 -0.040012177 0.06685874 0.012761516
000040 55 72 96 bc 37 d6 8e 3d 9f 70 c2 3d f5 5b ef 3c
       -0.018365065 0.06974452 0.09494137 0.029218653
000050 cf 3f 61 bd a5 76 74 3d 9f c8 55 3d d6 04 4d 3c
       -0.054992493 0.05968346 0.05219328 0.01251336
000060 e1 d7 f1 3d a4 3b a1 3d 99 84 61 3d ae 05 76 bd
       0.11808754 0.07872704 0.055058096 -0.06006401
000070 c2 77 19 bc 78 e5 a0 3d f1 75 08 3c a7 ff 9e bc
       -0.009366931 0.07856268 0.008328901 -0.019409014
000080 c9 8b 58 bd 1a 02 be bd 10 d2 7e 3d eb d6 98 3c
       -0.052867685 -0.092777446 0.06221205 0.018657168
000090 6e 90 ac 3d 80 17 d4 3c b7 b4 39 bd 90 c5 9f 3c
       0.08425985 0.025890112 -0.04533836 0.019503385
0000a0 a4 08 af bd d3 99 5a 3d e9 de 42 bd d3 b6 24 3d
       -0.0854657 0.053369354 -0.047575865 0.040213417
0000b0 18 84 a0 bc 20 44 67 3d 11 e0 c6 3c 12 7a 24 3d
       -0.019594237 0.056461453 0.024276765 0.040155478
0000c0 64 b9 db bc f5 84 1f bc a8 d2 62 3d 78 73 c3 3c
       -0.0268218 -0.009736289 0.05537668 0.02385877
0000d0 48 3c 46 bd b8 b1 65 bd cf 69 97 bd 94 7d 02 bc
       -0.048397332 -0.05607769 -0.07393228 -0.0079645105
0000e0 78 4f 72 bd ed 03 b5 bd a5 ea 80 bc b3 af c4 3c
       -0.05915782 -0.088386394 -0.015736887 0.024009561
0000f0 68 94 a1 bd f4 8b 04 3d 6c bd 3d 3c 26 9d cb 3c
       -0.07889634 0.032360032 0.011580806 0.024855208
000100 7a 42 0d 3e 3a b3 11 3d 70 5d 53 bd 0f 9f 9f 3d
       0.1379489 0.035571314 -0.05160278 0.0779401
000110 8c 7f 42 3d 69 ab 29 3d 67 62 2b bd a6 59 8b 3b
       0.04748492 0.041423235 -0.04184189 0.0042526303
000120 42 af 43 bc b0 0a db 3d 51 58 97 3b fd 7c 23 3d
       -0.01194364 0.10695398 0.0046186824 0.03991412
000130 5e a9 41 bd 28 29 35 bd a4 ed 20 bc b4 e2 59 3b
       -0.04728066 -0.044228703 -0.009822283 0.0033246698
000140 fb b1 ad 3d 2a 8b 96 3c 19 85 8f bd 7c 51 42 bd
       0.08481213 0.018376905 -0.07007808 -0.04744099
000150 56 0c 2e bc b7 ce b0 bd c8 7f b9 bc bc f1 05 3d
       -0.010623058 -0.08633178 -0.022643939 0.03270124
000160 cd 60 25 bd 21 d6 d1 bc be 5c af 3c 5f af 3d 3d
       -0.04037552 -0.0256148 0.021406528 0.046309825
000170 7c 73 a4 bd e8 cb a4 bc 55 ac be 3d 96 b7 f6 bc
       -0.080298394 -0.020116761 0.093102135 -0.030116837
000180 5e b5 84 3b 0d a8 7e 3d e0 e7 54 3d 7e 26 a5 3d
       0.004049941 0.062171984 0.051978946 0.080639824
000190 c4 ee 18 bd 0b f9 d0 3c ea 2a c6 3c e0 6e 01 bd
       -0.03733708 0.025509378 0.024190385 -0.03159988
0001a0 57 48 86 3c 7e f1 d0 3d be 88 ec bc 2e 7d ad bc
       0.016391916 0.10202311 -0.028873798 -0.021177854
0001b0 26 91 98 3d d4 56 37 bd d0 aa 14 bd 2d a0 fd 3c
       0.0744956 -0.04476054 -0.036295712 0.030960167
0001c0 29 2c 23 3d 4c 72 2b bd 53 d3 b5 3d 47 a1 04 bd
       0.039837036 -0.04185705 0.088781975 -0.03238037
0001d0 5f 3b 0f bd 07 5e 65 3c 57 5c 9b 3d 94 e4 89 bd
       -0.03496873 0.013999469 0.07585972 -0.06733051
0001e0 bb b7 e0 3c 92 18 1a 3d ff fb 7c bd e0 77 c5 3d
       0.02743136 0.03762109 -0.06176376 0.09642005
0001f0 b5 af b6 bc 29 e2 75 3d f0 49 0b 3d 0a 71 3f bd
       -0.02230058 0.060030136 0.03400606 -0.04673866
000200 11 45 8e bd 3b 46 6e bd e1 59 27 3c 7b ed 73 bd
       -0.06946767 -0.058172446 0.0102143 -0.05955265
000210 a9 bc 44 3d cf 00 87 bd 67 54 83 bd 98 48 38 bd
       0.048031483 -0.06591951 -0.06412583 -0.044991106
000220 32 02 ef 3c 50 79 9f 3d cc 48 89 3c 07 b0 c5 bb
       0.029175851 0.077868104 0.016758345 -0.006032947
000230 82 14 b4 3d b1 40 4f bd 05 f2 80 bd e8 bd a9 bd
       0.08792974 -0.050598804 -0.062961616 -0.08288175
000240 39 d4 32 3d db c1 b0 3c ad 01 45 bd fd 24 09 bd
       0.043659423 0.021576812 -0.0480973 -0.03348254
000250 ce 9e 10 3d 6e b0 81 3c 21 f6 25 3d 34 3a a2 bd
       0.035307698 0.015831199 0.04051793 -0.079212576
000260 dc 6b 2a bd 9d 1d 24 bd f0 49 d5 3c 82 a2 9c 3d
       -0.04160677 -0.040067304 0.026036233 0.076481834
000270 34 7b b8 3d 8c cc 11 3c e4 4e be bd 48 bf 17 bd
       0.09007874 0.008898865 -0.09292391 -0.037047654
000280 8c 3e 61 3d fe c1 3c 3d cc 27 f3 3c 18 bd 7b bd
       0.05499129 0.046083443 0.029682063 -0.06145963
000290 dc 0d 36 bd 57 37 83 3d 1a dd ad 3c d6 e0 67 bc
       -0.04444681 0.064070396 0.021223594 -0.014152726
0002a0 07 69 fc 3c 1b b0 c7 3b 9c 24 96 bd a1 ed 59 bd
       0.0308118 0.0060939915 -0.073312014 -0.053205136
0002b0 ad c7 19 bd 2c 43 03 3c 69 6e 4e 3d ce 8b 34 3d
       -0.03754394 0.0080116205 0.050398264 0.04407864
0002c0 de 49 0c 3d 67 24 1d bc 7b 8d 58 bd df a9 0d 3c
       0.034250133 -0.0095911985 -0.0528693 0.008646457
0002d0 51 ab 22 bd 86 d2 6d bd d5 95 1b 3c 2e d0 b5 3c
       -0.03971416 -0.0580621 0.009496172 0.022193994
0002e0 a2 af 39 3c e3 73 95 3d 3b 49 db 3b 5d 98 8a 3d
       0.011333378 0.07297494 0.0066920794 0.06767342
0002f0 c6 f2 7e 3d 5e 42 da bc 1b c7 ac 3c 9f b9 c2 bd
       0.062243246 -0.026642974 0.021091035 -0.09508061
000300 2d e0 db 3c aa bd 53 3c 3f 3e 57 3d 28 41 5a 3d
       0.026840294 0.012923637 0.052549597 0.053284794
000310 80 e3 08 bd 87 10 96 bc 71 8c 03 3e 7b 4d c5 3d
       -0.033420086 -0.018318428 0.12846543 0.09633919
000320 3d c1 d8 bc 64 61 94 bd 30 dc 3b bd a5 02 e9 bc
       -0.02645933 -0.07245138 -0.045864284 -0.028443644
000330 d8 de ee bd 19 5d 69 bd 80 f9 d5 3c 68 81 8a 3c
       -0.11663598 -0.05697355 0.026119947 0.016907409
000340 09 c0 c9 bc 47 70 aa bc 62 cc d5 3c 09 ba 58 3d
       -0.024627702 -0.020805491 0.026098434 0.052911792
000350 fb 76 2a 3d 98 c5 8f 3c 7d db 0e bd ea e5 ee 3b
       0.041617375 0.017550275 -0.03487729 0.0072905915
000360 1b 7d 06 3e 2c b6 0a bd 13 27 77 3d 93 fb 13 3c
       0.13133661 -0.03386514 0.06034 0.009032148
000370 5a 4d 8f bc 7f a6 92 3d 64 07 13 bc e8 8e cc bc
       -0.017492939 0.07160663 -0.00897393 -0.024970487
000380 1e 27 94 3d 09 fb 18 3c 7d 25 6b bd 7a fc 3f 3c
       0.072340235 0.009337195 -0.0574088 0.01171791
000390 e4 d6 a2 3d 35 51 b1 3d bd b4 d6 3c 5d 45 1e bd
       0.079511434 0.08658067 0.02620923 -0.03864037
0003a0 f5 3e 9d bd 25 4b f4 bc e0 c3 44 3d 17 9d 83 3c
       -0.07678024 -0.029820988 0.048038363 0.016066117
0003b0 fd c8 80 3d a2 00 81 bd d5 dc 83 3d 10 cd 08 bb
       0.062883355 -0.06298949 0.06438605 -0.002087418
0003c0 59 fd dd bc 16 ed 9d bc f6 46 33 bd 65 92 46 bc
       -0.027098345 -0.01927809 -0.043768845 -0.012119864
0003d0 c9 67 f7 bb 63 a8 11 bd ba 33 a9 bd c8 17 0e 3d
       -0.007550214 -0.035560977 -0.08261819 0.03469065
0003e0 33 2d 86 bd d6 7d 81 3d 73 32 0d 3d 48 d7 bd 3d
       -0.0655159 0.063228294 0.03447194 0.09269577
0003f0 a0 67 1f 3b 1b f8 69 3d c7 ff 3c bd 91 1e de bb
       0.002432324 0.057121377 -0.046142366 -0.006778546

linear2.bias f4 [64]
000000 3c 26 99 3d 10 85 84 bb ca 80 5d bd c2 0a eb 3c
       0.07477996 -0.0040441826 -0.0540779 0.028691653
000010 f4 e2 e5 3c 6b 66 06 3d 11 ef 91 3a 2a 8a 43 bb
       0.028062321 0.032812517 0.0011133869 -0.002983699
000020 91 a7 7f 3d 9e 6a 41 3b b0 8b 5e bc 76 54 22 3d
       0.062415663 0.0029513012 -0.013583109 0.03963133
000030 74 41 16 bd 68 80 43 3d f8 84 86 3d e0 f6 8e bc
       -0.036683515 0.04772988 0.065683305 -0.017451704
000040 51 ad 85 3d 90 4d 84 3d e9 4c 4e bd 97 1a 0b bc
       0.06527198 0.064601064 -0.050366316 -0.008490226
000050 81 ca 34 bd d0 c7 65 3d 3a 4c 8e 3d ce cf a1 3c
       -0.044138435 0.05609876 0.06948133 0.01975241
000060 3e e4 07 bd aa c7 52 3d e3 16 e5 3c a7 24 f4 bc
       -0.033176653 0.051459946 0.027965015 -0.029802633
000070 5e 30 99 bb a3 e9 8d 3d 20 cc 91 3d 93 fa 5a bb
       -0.0046749553 0.06929328 0.07119012 -0.0033413514
000080 3e 5d 19 3d 59 6e 02 3c 59 98 99 3d 67 d5 7e 3c
       0.03744244 0.007960879 0.07499761 0.015553809
000090 a4 bb 4b 3d 9e ca 26 3d ae 89 b0 3c 29 da 55 3d
       0.049739495 0.040720575 0.021550026 0.052210007
0000a0 41 99 03 bd d2 80 65 3c 0d 78 5a 3d e5 17 00 3d
       -0.032128576 0.014007764 0.053337146 0.031272788
0000b0 bb 74 0c 3c f7 7c 37 3d 0d 57 f2 bb fb 4d 57 bd
       0.008572753 0.04479691 -0.007395631 -0.052564602
0000c0 d8 5b f6 3c 42 f9 9f 3c f2 db 75 3c 12 4e 38 bd
       0.030073091 0.019528035 0.015006052 -0.04499633
0000d0 23 c2 31 bd e1 57 e8 bb 2e a8 80 3d b3 31 3e bc
       -0.043398034 -0.007090554 0.06282078 -0.011608529
0000e0 e6 ce 8e 3d af b3 9e 3a fd 28 0a bd 13 51 80 3d
       0.069730565 0.0012107993 -0.033730496 0.06265464
0000f0 32 20 22 bd 9b 84 4a 3d b4 0d d3 3b 43 2b b2 bb
       -0.039581485 0.04944287 0.0064408425 -0.005437286

linear3.weight f4 [10, 64]
000000 eb 15 f8 bd ad 9a 91 bd db 23 1e ba e3 2a 1d 3d
       -0.121135555 -0.0710958 -0.00060325646 0.038370978
000010 09 9e 28 bd 0f 31 a4 3e 66 65 2b 3e 3c 24 f3 bd
       -0.04116634 0.3206868 0.16737899 -0.118721455
000020 b3 3c d0 bd 23 30 5e bd f4 b3 68 bc b8 a8 09 be
       -0.101678275 -0.054245126 -0.01420306 -0.13443267
000030 73 46 37 bd e5 84 ba 3c 5f e8 2c be 4b 5e 30 be
       -0.04474492 0.022768447 -0.16885518 -0.1722347
000040 0a dd 93 3e 52 69 30 bc 9b 1a 98 3d e5 89 a1 bd
       0.28879577 -0.010767298 0.074269496 -0.078876294
000050 c4 b4 c2 bd 9b 65 29 be 0b bb 9a 3d d1 95 7b bd
       -0.095071346 -0.16542666 0.07555207 -0.061422173
000060 c2 fe 3f bc 35 bb c5 bd 81 a4 d1 bc 6b 2c 86 be
       -0.011718454 -0.096548475 -0.025591137 -0.26205763
000070 e3 27 73 bd f0 10 78 3e 52 94 7c be 60 77 32 3e
       -0.05936421 0.24225211 -0.24665955 0.1742835
000080 1e 49 89 3d cd 9d 76 be 2c 3c 8a 3b d8 b1 29 be
       0.06703399 -0.24083634 0.004218599 -0.16571748
000090 42 3b 37 be 62 75 f8 3d 8c e3 61 3e c6 39 24 3e
       -0.17893699 0.12131764 0.22059458 0.16037664
0000a0 83 de cf 3d be da 1d 3d 9f 3d ce 3d f2 ed 97 bd
       0.101498626 0.038538687 0.10070347 -0.07418431
0000b0 ba 6e 1e 3e 1e 43 20 bc 85 60 5a 3d c3 d6 fc bb
       0.15471926 -0.009781627 0.053314704 -0.0077160313
0000c0 e7 b6 87 3e c5 1b 4f be 6c 81 86 3d 89 8b 11 be
       0.2650673 -0.20225437 0.06567654 -0.14213385
0000d0 71 f8 5e 3d 66 0b 2e be aa 2b ad bd 37 46 07 3d
       0.05443615 -0.16996536 -0.08455594 0.033025946
0000e0 24 39 93 be 60 49 16 3e 48 b6 80 3c 7b f0 e9 3d
       -0.28754532 0.14676428 0.015711918 0.11422821
0000f0 fd 89 a4 3e e0 20 34 3e cf b8 22 be 1d 3a 1f be
       0.32136527 0.17590666 -0.15890811 -0.15549512
000100 16 dd b2 3c 93 f0 87 3d c1 02 a5 bd 82 3c 03 be
       0.021833938 0.06637683 -0.08057166 -0.1281605
000110 73 84 8c 3e af 16 8d 3d d9 ca 71 bd d7 f7 0f 3e
       0.274448 0.06889092 -0.05903134 0.14059387
000120 c0 e6 99 3e 1e 91 17 bd 8a 8f c3 3d c9 94 df bc
       0.3005886 -0.03700363 0.09548862 -0.027292626
000130 18 f1 36 be 3a 1a 95 bb 1b d9 8c bd 58 04 f2 bd
       -0.17865407 -0.0045502456 -0.06877347 -0.11817235
000140 6f ed 0b 3e b1 8a 32 bd e4 e2 f5 bc 14 b0 a1 3c
       0.13664792 -0.043589298 -0.030015416 0.01973728
000150 56 f9 dd bd 67 04 d7 3d 5c 06 1d 3d 49 8e 1b be
       -0.10838573 0.104988866 0.038336143 -0.15190996
000160 17 de 9e be d3 8b ba bd fe 16 5d bc 6f d0 ee bd
       -0.31028816 -0.091087006 -0.013494251 -0.11660849
000170 4d 84 64 bd 3a 62 95 be 53 5b e4 bc 19 94 eb 3d
       -0.055790234 -0.29176503 -0.027875578 0.11502857
000180 20 03 9c 3e 64 56 a8 3e 70 ab 46 be 55 cd a3 3e
       0.30471134 0.3287841 -0.19401336 0.31992593
000190 49 9c d1 3d fa 0f 6b be bf a5 7a bd 3c b5 72 be
       0.10234887 -0.22955313 -0.061193224 -0.23701948
0001a0 b7 94 0c 3d 3f 13 47 3c f7 a6 ab 3d ca 31 42 3d
       0.034321513 0.012150585 0.083814554 0.047410764
0001b0 95 a0 67 bd 24 d5 6f 3d 62 ff 03 be dc 82 6f bd
       -0.056549627 0.058552876 -0.1289039 -0.058474407
0001c0 91 64 72 be d4 ff 34 bd b2 98 d6 3c ff 10 06 3e
       -0.23671176 -0.04418929 0.026195858 0.13092421
0001d0 83 a9 1b 3e 0b f0 39 be 1e c9 81 3e dc 52 21 be
       0.15201382 -0.18157975 0.25348753 -0.15754265
0001e0 1b 00 81 be 8b 64 0f 3e 19 0c 30 3d c4 5d 6e be
       -0.25195393 0.14003198 0.042980287 -0.23277956
0001f0 0d 29 1d be c4 15 a5 3c 93 76 bc 3e f2 8f 1e 3c
       -0.15347691 0.02015198 0.36809215 0.009677874
000200 9c 86 98 be b9 d1 10 3e 74 8e b7 3c 39 72 84 bd
       -0.297902 0.14142503 0.022406794 -0.06467099
000210 d4 46 19 3c 42 c4 1f be 8b a5 b5 3c f4 1d 44 bc
       0.009355266 -0.1560221 0.022173664 -0.011970032
000220 d9 ce 3c be 15 d7 4f bd 6a 7c 83 bb 0e be a1 3e
       -0.18438281 -0.050742228 -0.004012634 0.31590313
000230 51 d8 fc 3d d7 e5 92 3b 43 dd b7 be e0 9e dc 3d
       0.123459466 0.0044829655 -0.35910997 0.107724905
000240 51 58 19 be 87 97 3d 3e 39 ae de bd 2e 84 01 be
       -0.14975096 0.18514834 -0.10873074 -0.12648079
000250 ff 6b b7 3d d2 d3 29 be 9a 61 80 3e 94 11 34 3e
       0.089561455 -0.1658471 0.25074464 0.1758483
000260 1d ed cd 3d 7d 3c b7 3c 75 f0 6a bd d6 86 4f be
       0.100549914 0.02236771 -0.057358224 -0.2026628
000270 c2 25 fd bd f6 16 7b 3e d4 8d af 3e 5e 53 9a be
       -0.12360717 0.24520478 0.34287894 -0.3014173
000280 16 96 ba 3e c0 f7 83 3e 4a a7 a4 3e ad f7 4d bd
       0.3644263 0.25774956 0.3215888 -0.05028503
000290 25 89 0d 3d 57 41 d2 3d 2f 09 a5 bd f4 27 ae be
       0.03455462 0.10266369 -0.08058392 -0.34014857
0002a0 9a 8f 50 bc 36 78 32 be f1 97 90 bd 02 95 44 bd
       -0.01272955 -0.1742867 -0.070602305 -0.047993667
0002b0 fc 1b a0 bc 65 cc c6 bd 1c 61 31 be 0b 2f ad bc
       -0.019544594 -0.09706954 -0.173222 -0.021140596
0002c0 c4 a0 d4 bd 1f 93 77 be 11 b6 04 be 0a 61 fb bc
       -0.10382226 -0.24177216 -0.12960078 -0.03068592
0002d0 1a e5 50 bd cc 0a a9 3e 8f 95 84 be 98 c2 dd bd
       -0.05099974 0.3301605 -0.25895354 -0.108281314
0002e0 bd 06 26 ba 29 a5 2c 3e ba 0d 10 3d e6 de ed 3d
       -0.00063334015 0.16859879 0.03516934 0.1161478
0002f0 9d ad c2 3e 0f 84 12 be 10 0c fc bb 0d 7c 89 3d
       0.3802308 -0.14308189 -0.0076918676 0.06713114
000300 f5 2f 1e 3e 51 07 39 3e 82 57 26 bc 12 b3 18 3d
       0.15447982 0.18069197 -0.010152699 0.03728015
000310 80 9e 5a 3e 36 6d 35 bd 8a 12 13 bd 4a 93 be bd
       0.21349525 -0.044293605 -0.035906352 -0.09305437
000320 c7 8c 69 be f1 77 2d 3e b0 11 91 bd a8 72 a4 3e
       -0.22807609 0.16940285 -0.07083452 0.32118726
000330 0c 6b 11 be 86 d6 bf bc 4f 61 92 3e 29 f7 af 3e
       -0.14200991 -0.023417722 0.28589866 0.34368256
000340 08 6b dc bd 0f 6c 05 bd a3 df 4c bd 68 d3 cb 3d
       -0.10762602 -0.032573756 -0.050017964 0.09952432
000350 14 11 5c 3d 59 05 65 3e ab df 21 3e a3 14 22 3d
       0.053727224 0.22365321 0.15807979 0.039570462
000360 eb 2a 68 be 7a f1 2d 3e 61 3f ef bd 2f 03 82 3e
       -0.22672622 0.16986647 -0.116820104 0.25393054
000370 c7 cd 92 3b 25 7f 90 be 79 c9 59 bb a2 46 72 be
       0.004480097 -0.28222004 -0.003323166 -0.23659757
000380 b7 8f 08 be 8d 6a 20 bc 85 16 e3 bd ca 48 a4 bd
       -0.13336073 -0.009791029 -0.1108828 -0.08021696
000390 c5 09 51 be d7 32 a6 3e 73 97 b8 bd b6 d0 3b be
       -0.20413883 0.32460663 -0.09013262 -0.18341336
0003a0 a5 66 07 be a6 c4 85 3e e8 71 ac bd 07 88 a1 3c
       -0.1322275 0.26126593 -0.084201634 0.019718183
0003b0 38 4a 3b 3d aa 20 cd 3d f5 d2 37 be b8 43 8d bd
       0.045725077 0.10015996 -0.17951567 -0.06897682
0003c0 73 38 c7 3e 79 47 ae 3d d1 a3 eb be 3d a4 10 be
       0.38910255 0.08509726 -0.4602342 -0.14125152
0003d0 c0 f9 b4 bd 27 8f 58 3e 67 74 db bc a8 c8 8f be
       -0.088366985 0.21148358 -0.026788903 -0.28082776
0003e0 76 ee 01 3e 16 ea cb bd f5 da 2a bd 45 43 3a 3e
       0.12688622 -0.09956758 -0.04171272 0.18189724
0003f0 67 25 8c 3d dd 65 6a be 68 e0 88 bc 3b 02 06 be
       0.068430714 -0.2289042 -0.016708568 -0.13086788

linear3.bias f4 [10]
000000 9f 4c b5 bd f5 51 80 bd 0f 91 cd 3d 4d 18 7a 3c
       -0.08852505 -0.06265632 0.10037433 0.015264583
000010 19 f3 42 3d 0e b0 a4 3d 35 5c de 3d bc ef cc bd
       0.047595117 0.08041392 0.10857431 -0.10006663
000020 1c 25 98 3c a9 1f 7b bc
       0.018572383 -0.015327373
