cv/第二次作业/model2/model.pkl (torch, 250533 bytes, 10 tensors)

0.weight f4 [6, 1, 5, 5]
00000000: 0482 9abe 93b2 2a3e 9f10 433e 70fc 5c3e
00000010: 6392 10be c228 92be 2598 193f 190b 523f
00000020: 205f 063f 04e2 43be a07a 36be 2839 e03e
00000030: 3c07 513f 19b0 013f 1a49 dc3d 94c2 f6be
00000040: ef37 833e ad3e 4b3e 139d 0abd aa2e 73be
00000050: 7e41 d5be 68c4 eebd a0b8 9bbe 635a 003e
00000060: dccf 413e 9265 95be 7319 c8be 8680 1dbe
00000070: 7c41 1e3d 2904 c5bd 39da 66bd 6987 ee3b
00000080: 64f0 ea3e 886d 133f 0e62 143c 3a41 06be
00000090: 2bda 0d3f 3042 513f be96 4e3f afdd 50bb
000000a0: 585e 05be 9cac fe3e 5167 0d3f f315 b13e
000000b0: 78e3 abbc 837b 02be 437f 19be c947 a0bd
000000c0: 2447 ebbd c6ac 93be 2983 143e fb21 4dbe
000000d0: 019a 8bbe 0835 9dbe 9945 67be 5b2f 93bd
000000e0: 831e 3cbe f77f 17be 75ee c6bd f7d0 dcbd
000000f0: ebe1 43be ebba 98be 9f9d d1bd 779f f7bd
00000100: fdee a2bd bf49 393d ea3f 2ebe 0024 babd
00000110: fb98 61be 2121 923c 24dc 3f3e 5492 1dbe
00000120: 8de0 4bbe a6f6 b83d 39a1 81bc 86f8 7ebd
00000130: a939 90bd 441e 23be 3cad 56be 6f74 0abe
00000140: 130a cfbd 6577 59bc 386f 36be e9ca 5dbe
00000150: ecea 41be 28f4 593e aeaa 83bd 56ee 7c3d
00000160: 2ca4 a1bd 85ec f6bd 7bb3 883d eed9 91bc
00000170: 9bc1 9e3e 3bc4 9c3e 66c1 b3bd 4888 b7bd
00000180: cb75 823e 4141 b13d 85e9 7b3e e7c3 1c3e
00000190: 0ae1 de3d 48e5 af3d 8424 b83c 7e2c a8bd
000001a0: ba73 a9be fe09 11be 852b d8bd 4476 2cbe
000001b0: 81d5 e8bd 9a17 bd3d fab5 4dbb 2bc7 873e
000001c0: 1e50 863e 03bc 723e 21ec 753e a9e2 54bd
000001d0: 5d9d c53b 6971 3a3d e316 a53d 4f45 823e
000001e0: 2dc0 35bc 36c9 6ebe 3430 37be b413 3bbe
000001f0: 68d8 84be 1b20 3b3e 0b32 3c3e 558a 933d
00000200: 91b1 c23e 040e e33d 0850 d03d 6a48 6a3e
00000210: 1ebb ab3e b274 ca3e 03ce 4c3e 731c 1ebd
00000220: d396 fabd 91b0 16be 8d97 13be 4d2e 1abd
00000230: aab6 443d 165b 58be c053 bcbd 0ed2 73be
00000240: 62a2 e13c 1513 6dbe af24 58bd 2c54 97be
00000250: ec85 94be af06 7dbe
-0.3017732 0.16669683 0.19049309 0.21580672 -0.14118342 -0.2854672 0.5999778 0.82048184
0.524889 -0.19129187 -0.17820215 0.43793607 0.81651664 0.5065933 0.107561305 -0.48195326
0.2562861 0.19848128 -0.033841204 -0.2374827 -0.4165153 -0.11658555 -0.30414295 0.1253448
0.18926948 -0.29179054 -0.39081916 -0.15381059 0.03863667 -0.09619934 -0.056360457 0.0072793257
0.45886528 0.57589006 0.009056581 -0.1311082 0.5541102 0.8174162 0.80698764 -0.0031870415
-0.1302427 0.49741066 0.55235773 0.34587058 -0.020982489 -0.12742428 -0.14989953 -0.07826192
-0.11488178 -0.28842753 0.14503159 -0.20032494 -0.27265933 -0.30704522 -0.22585143 -0.07186767
-0.18371014 -0.14794908 -0.09713451 -0.107820444 -0.1912915 -0.29830107 -0.10235142 -0.120909624
-0.0795574 0.045236345 -0.17016569 -0.09088898 -0.22031014 0.017838063 0.1873632 -0.15387851
-0.19909878 0.090314195 -0.015823947 -0.06224873 -0.07042248 -0.15929514 -0.20964521 -0.13520978
-0.101093434 -0.013273095 -0.17815864 -0.21659435 -0.18937272 0.21284544 -0.06429039 0.061750732
-0.078926414 -0.12056831 0.06674858 -0.017804112 0.31007084 0.30618462 -0.08777122 -0.089615405
0.25480494 0.08655024 0.246008 0.15309106 0.108827665 0.08588654 0.02247835 -0.08211611
-0.33096105 -0.14163968 -0.10555176 -0.1684199 -0.11368848 0.09233017 -0.0031388984 0.2651914
0.26233 0.23704533 0.24015857 -0.051973972 0.006030722 0.045518313 0.08061006 0.25443503
-0.011093182 -0.23318943 -0.17889482 -0.18269235 -0.25946355 0.18273966 0.18378465 0.07204119
0.38026097 0.11086658 0.10171515 0.22879186 0.33541197 0.39542156 0.20000462 -0.03860135
-0.12235799 -0.14715792 -0.14413281 -0.037641812 0.048025765 -0.21128497 -0.091956615 -0.23810598
0.02754325 -0.2315181 -0.05276936 -0.29556406 -0.29008424 -0.24709581

0.bias f4 [6]
00000000: 0d3b c13e e7f6 153f 622a a93e fdba f7bd
00000010: a40e 99bd ff07 5f3d
0.37740365 0.5857987 0.33040148 -0.12096212 -0.074734956 0.054450985

3.weight f4 [16, 6, 5, 5]
00000000: 23a8 aa3d 0e34 03bd b81a 05be 98b6 81be
00000010: f36f 15be afde c13d 73c6 c83d 2efd c83d
00000020: 0a6b af3d b034 233e 974b 393e 0641 e13d
00000030: cbcb e83d 5413 9e3d ed1b bd3c 3693 dcbd
00000040: 4a7c 46be c13f dabe a008 ebbe c7a7 9dbe
00000050: d367 54bd e189 9ebd a5d5 0e3d c86c 253e
00000060: 6768 c63d b0eb 843d 698e 8cbd c046 27be
00000070: 630f e4bd 5b7b 97bd ce53 033e 83bb 1e3e
00000080: bbec aa3e cf19 933e d342 803e c867 f33b
00000090: 6c1a 103d 799c a3bb 8aab 30be c6a3 d8bd
000000a0: 91f7 66be 1354 93be 4755 c4be 5626 77be
000000b0: a57c 10bd e61e 93bd 4a23 e839 7225 523e
000000c0: 3a48 473e c81b 2e3e ec5d 5cbd 442f 833c
000000d0: 77d0 983d 40ea 43bc 1c9d 95bd baf5 d53c
000000e0: dc15 ebbd 243a f6bd 44ae c1bd 7c11 dfbd
000000f0: b4a0 30bd f4a2 b4bd be2c 92bd 877a e13c
00000100: f52f babb 6b67 36bc b7f9 21bd e305 ef3d
00000110: 58a8 393d 05f1 ad3d b488 e33d 02d5 d03d
00000120: 5346 483d fc6d 123d 79c8 103e ae47 483d
00000130: db45 e8bd a497 96bd 9a4e 4cbd 6ef1 b73d
00000140: f83d 0cbd 95b2 a53d 29f2 003d 10ea 9dbc
00000150: daba ad3d f5ea 6cbd ca24 03bd b11a 9cbd
00000160: 6542 a1ba 6577 eabd 7957 f7bc 3b0f bc3d
00000170: 0cbc f83d bd15 b23d 44a6 76bc ee30 113d
00000180: 9150 d43c 5c14 a5bc 282d 40bc 9388 51bd
00000190: a79a d13b 75d8 cc3c 322e 35bc 3eb3 b13d
000001a0: aab0 903d 28a7 7f3b 2702 003d 223d 2d3e
000001b0: 1e5b d33d 81ae a73d 7e09 053e 2e9a 013e
000001c0: a126 863c b8c0 6c3d 9727 633d f80b 823d
000001d0: cf56 4ebd 83d4 0f3d 8b3b c73d 9194 c8bc
000001e0: 2ecf 2f3c 0f61 e9bc 5c16 493d 846e ad3d
000001f0: 7147 da3c 1039 8cbd d6c0 fbbd 3d70 c7bd
00000200: 460f 81bc 80bb 91bd a28d 39bd 49a0 a7bd
00000210: 838f ccba bdfb 843d 5c61 603d 1c32 ac3c
00000220: 6473 3c3e b397 183e 4df8 1d3e c84c a53d
00000230: d5fd 8a3d 062e a93d 9f84 4e3d 41d4 11be
00000240: 9db4 2dbd 6547 f7bd cd31 44bd a410 1bbd
00000250: d118 9f3d 99fc fe3d b461 84b9 ad67 993d
00000260: a05f 4f3e 8837 b4bd 5791 92bd 268d 18bc
00000270: 4a38 943e dcf7 2a3c ac4e 5ebe c8ee 473d
00000280: 1b74 f13a e2b1 253e c093 8ebe bc67 02be
00000290: f29a 0b3d e5f0 fbb9 5935 c8bd a542 69be
000002a0: 3478 8ebd 6438 0e3c 821a 03bd dd00 0a3c
000002b0: f5e1 283c 11f1 e1ba 99b3 b2bc 364c a2bc
000002c0: 8491 2b3e 0ae4 f33d 45c9 4ebe 929c 3f3d
000002d0: e21a 8f3c 7475 ba3e c00b 05be 6fcf 9fbe
000002e0: 9db7 583d 9760 183e 927e 2b3d e481 a0be
000002f0: 51a8 1cbe 7d8f e03c 8663 c6bd 606f 3abe
00000300: 0574 21be 8cc0 28ba 5e22 d8bc 6162 a8bd
00000310: b87e d6bc f4ea 253d e4be f63b 5b0e 753d
00000320: 3023 8abd e917 b8bd 7138 44bd 0f43 673d
00000330: b5d0 023d f792 453d 63eb 82bd 7ffb 143d
00000340: 132d f33c b0fc 5bbb edc5 d4bd c067 97bd
00000350: 78cf 37bc 29f4 903d 17ef ce3d 714f c93b
00000360: e67d 1a3d bfe3 073e 58b9 d9bc a4f8 9f3d
00000370: 94fd dfbc a1df 9ebc cd40 5abd 1721 68bc
00000380: c279 a23d d073 acbd c9a5 cd3c a8f8 c5bd
00000390: c0ec 5d3d f2fa 8cbd dfd1 10bd 4ac0 8fbd
000003a0: b791 c4bd 99f3 6e3d f7cc 2d3c 34d1 b0bc
000003b0: 3705 e9bd 2447 073d 51e9 a8bc 507d 6bbd
000003c0: 2565 8abb 21dc 363d 23b9 3b3c b997 303d
000003d0: d885 23bd ab52 d5bc 5536 08bd 2d2d 12bd
000003e0: 383d d03c fe1b 8a3d 1e57 b1bd 50cb 8c3c
000003f0: 4f57 94bd 1fc1 23bd 2125 703d d11a 57bd
0.08332851 -0.032032065 -0.12998474 -0.2533462 -0.14593486 0.09466302 0.09803476 0.09813915
0.08565338 0.15938067 0.18095241 0.1099873 0.113669954 0.0771853 0.023084605 -0.10770266
-0.1938335 -0.42626765 -0.45905018 -0.30792066 -0.051856827 -0.07741142 0.034871716 0.16154778
0.09687882 0.06490266 -0.068631 -0.16335583 -0.11135747 -0.07396575 0.12824938 0.15501218
0.33383736 0.28730628 0.25050983 0.007428143 0.035181448 -0.004993018 -0.17252937 -0.10578112
-0.22555377 -0.2877508 -0.3834631 -0.24135718 -0.03527512 -0.07183628 0.0004427678 0.20522097
0.19461146 0.17002785 -0.05380051 0.016013749 0.074616365 -0.011957705 -0.07305357 0.026118148
-0.11478779 -0.12022808 -0.09457067 -0.10892007 -0.04312201 -0.08820143 -0.0713744 0.027524246
-0.0056819865 -0.011133055 -0.039544787 0.11671045 0.04532656 0.084932365 0.111100584 0.10196878
0.04889519 0.03574942 0.14138974 0.048896484 -0.11341449 -0.07353142 -0.049879648 0.08981596
-0.034238786 0.080907024 0.031480942 -0.019276649 0.08482905 -0.05784126 -0.032017507 -0.076222785
-0.0012303112 -0.11448554 -0.030193077 0.091825925 0.12145242 0.086955525 -0.015054289 0.035447054
0.025917323 -0.02015131 -0.011729516 -0.051155638 0.00639661 0.025005559 -0.011058377 0.08676766
0.07064946 0.0039009545 0.031252053 0.16917852 0.103201136 0.08187581 0.12991902 0.12656471
0.016375842 0.05780098 0.055457678 0.06349939 -0.050375756 0.035114776 0.09728154 -0.024484904
0.010730548 -0.028488664 0.04909359 0.08468345 0.026645394 -0.06846821 -0.1229264 -0.09738205
-0.015754353 -0.07115841 -0.045301087 -0.08184869 -0.0015606735 0.06493328 0.05478035 0.021019988
0.18403393 0.14901619 0.1542675 0.080712855 0.06786696 0.082607314 0.050419446 -0.14241125
-0.042408574 -0.12074164 -0.047899056 -0.037857667 0.07768405 0.12450523 -0.00025249796 0.07490478
0.20251322 -0.08799654 -0.071566276 -0.009310996 0.28949195 0.010435071 -0.21709698 0.048811704
0.0018421443 0.16181138 -0.278471 -0.12734884 0.034083314 -0.0004805393 -0.097758 -0.22779329
-0.06956521 0.008680437 -0.0320077 0.008423057 0.010307779 -0.0017237981 -0.021814154 -0.01981173
0.16754729 0.119087294 -0.20193966 0.046780176 0.017468873 0.36417735 -0.12992764 -0.31212947
0.052909482 0.14880596 0.041868754 -0.313491 -0.15298583 0.02741217 -0.09686951 -0.18206549
-0.15766914 -0.0006437383 -0.026383575 -0.08221889 -0.026183471 0.040507272 0.00753008 0.059828144
-0.06744993 -0.089889355 -0.04790539 0.056460436 0.03193732 0.04823586 -0.06392553 0.036372658
0.029684579 -0.0033567362 -0.10389314 -0.073928356 -0.011218898 0.0707782 0.101041965 0.0061435034
0.037717722 0.13270472 -0.026577637 0.07811096 -0.027342595 -0.019393744 -0.053284455 -0.0141680455
0.0793338 -0.08420527 0.025103467 -0.09666568 0.05418086 -0.068838015 -0.0353564 -0.07019098
-0.095981054 0.05833778 0.010607949 -0.02158413 -0.11377948 0.03302683 -0.020619066 -0.057492554
-0.004223483 0.044643525 0.011457714 0.043113444 -0.039922565 -0.026040396 -0.03325494 -0.035687614
0.025419816 0.0674362 -0.086591944 0.01718679 -0.07243215 -0.039979097 0.05862916 -0.05251581

3.bias f4 [16]
00000000: d15a 8b39 4fc3 57bd b525 ecbc 497c 283d
00000010: 4f61 a8bd 9d69 6a3d 5073 113d 5ab3 b1bd
00000020: fcce f53d 5ca8 d4bc ca74 76ba 0b72 073d
00000030: 1585 833c cde0 623c 6d27 adbc b819 a1bb
0.0002657981 -0.052676495 -0.028826574 0.041134153 -0.08221685 0.057229627 0.03551036 -0.08676787
0.1200237 -0.025959186 -0.0009401558 0.033067744 0.01605467 0.013847542 -0.021136964 -0.004916396

7.weight f4 [120, 400]
00000000: ac0d 92ba 9447 27bd fcef 483b 1d97 61bc
00000010: 5bc4 45bd cadc 4abd 724a 48bd 99fb d3bc
00000020: aa60 67bb 8788 94bc 5b30 47bd d4ee 1ebb
00000030: 13f2 ce3b ac27 2ebc 9b9f f03a a727 9d3c
00000040: c4b5 23bd e34d 2abd 6489 463a 93ae da3c
00000050: ba8d 313d e1af b33c c9f9 01bd 60ea 443d
00000060: 85a0 39bd d510 a2bc b78b 23bd ada7 d0bc
00000070: 3492 b3bc 30c1 153d 6d29 003d 991f 113d
00000080: c868 2bbd 4ff0 ce3c bbbc c33b cac9 fbbb
00000090: 67c2 6ebc aac0 123d 9b14 5d3c 64bb 68bc
000000a0: e637 3f3d 9c3a 85bb e46f 0aba 12ef 913b
000000b0: 0886 26bd 6bcc 92bc b097 133c 4f95 36bd
000000c0: 91b3 fabc 889f 343d 35b0 013a f714 a43b
000000d0: 3998 133c ad2f be3c e0c3 6ebc 526d 153d
000000e0: 4861 013c 945a 57bc 6406 e0b8 12d1 27bd
000000f0: 2c5e c43c 0919 d8bc 8eb2 2ebc c558 10bd
00000100: a927 e53c 5bb7 e8ba ac5d 273d 68ad 48bd
00000110: cd26 a9bc fca4 c7b8 3445 fa3a 5404 1d3d
00000120: f800 243a eaab 44bc ea9e cc3c 21da dcbc
00000130: 9362 243d ce7a 91bc dcdd f6bc 40ff cc3b
00000140: 7d6a 743c 6edf e6bc d6fb 30bd ce66 d7bc
00000150: 6fa9 343d 5a6d 54bc 2ea6 023d 642f 47bd
00000160: f103 d93c 4fc6 3cbd b635 0ebd b086 48bd
00000170: ab00 f73b 3d3d f53c c75b 713c 4213 1b3d
00000180: ee4c f5bc 80ca 173d 9daf 633d 9c82 4a3d
00000190: 1553 d1bc f288 1ebd da8a e53c 3525 31bc
000001a0: ab48 f2bc 48e0 0dbd 2633 c23c 0053 35bd
000001b0: 0bbf bb3c 2d25 fabb 835f 40bd e108 2a3d
000001c0: 27f2 1dbd cdb3 ac3c 53bb 18bd 84f6 b0bc
000001d0: ec29 d7ba 92e3 09bd 4717 523b 06a1 42bd
000001e0: e039 cabc a38d 963c a03a 953b bd67 36bd
000001f0: e47c 0dbd fc4c 3e3d d06a 803b 2b39 3b3b
00000200: aaa2 51bc 3d62 40bd 9631 723c fd6d 123d
00000210: 3e64 74bb dfdd c6bc 9a66 013d ae97 a3bc
00000220: ef2a 583c d34b a43c c534 20bd 0280 8c3b
00000230: 3d56 9dba 17d8 f93b b427 c7bc d741 6a3a
00000240: 83a4 9abc 9099 59bc 2e6f ba3c 1174 103b
00000250: b68f fabc a579 6d3c a261 12bd 3242 b23a
00000260: 73f5 3abd 532c 92bc 0925 0ebd 193a d93c
00000270: a046 313d 84b0 ef3b b15a 373d 0392 3abd
00000280: 491e c5bc 3f9b dabc aef3 86ba af9d 7f3c
00000290: e040 ef3c bac8 2e3d 2c04 073d ecff 163d
000002a0: 7550 c93b bc92 58bc d9a7 23bd 0584 cdbc
000002b0: 1478 55bc a8e3 e63a 9f85 20bd 5ede 693c
000002c0: a60c b6bc 6109 a4bc 9b3d 7f3b 5833 11bc
000002d0: 46f9 d73b a1e7 13bd dd88 f7bc 7891 e73b
000002e0: 3e15 51bc 797e 4b3d 2a69 db3c 7d43 babb
000002f0: 533e 95bc c01c 14bd b4ee 39bd aa83 dbbb
00000300: b20f dcbc b1f8 243d c2ed 483d 8a24 823c
00000310: 8e7e 9abc 3035 1a3d 07f2 eabb b333 523c
00000320: 3c95 33bd 1155 e93c 7cc2 24bd d90f 753c
00000330: 9b36 b13c 30b7 f73c e78f a73b acb2 7a3c
00000340: 8599 433d 8dd7 a03b dee8 58bc ade7 543c
00000350: 42d9 48bd a758 0e3d 2610 1abd f57a 033d
00000360: 681e c33c f155 e73b dcf2 173d 8bfe eaba
00000370: 517d 3dbd 4a84 1d3d c241 37bd 8049 c5bc
00000380: d167 afbc 1093 00bb cfb0 2bbd a1ef a9bb
00000390: fd92 18bd e2cf fd3c 98d2 393d 5c6f d8bc
000003a0: f9fb afbc 9932 2ebd 2e49 88bc c693 3d3d
000003b0: be3a 103d 7cd0 30bc 55e0 1cbd 1383 7e3c
000003c0: edd5 273d 349f 15bc 32e9 1fbb 4679 103d
000003d0: 11f9 9bbc 7d6c c03b ef83 edbc fa55 343d
000003e0: 6d2f 493b 80f4 8c3c 17f9 08bd c557 2fbd
000003f0: edbe 8d3c 6bfa fb3b 9e64 483c 33e1 143c
-0.001114299 -0.040839747 0.003066062 -0.013768938 -0.048282962 -0.049526967 -0.04889912 -0.025876807
-0.003530542 -0.018131508 -0.0486301 -0.002425124 0.0063154786 -0.010629576 0.0018358113 0.019183947
-0.039968267 -0.041578185 0.00075735734 0.026694572 0.04334805 0.021934452 -0.031732354 0.04807508
-0.0453191 -0.019783417 -0.039928164 -0.025470579 -0.021920301 0.03656119 0.031289507 0.035430524
-0.041847974 0.025261072 0.005973426 -0.0076839672 -0.014572716 0.03582827 0.013493682 -0.014204834
0.04668417 -0.0040658247 -0.0005280955 0.004453548 -0.040655166 -0.01791974 0.009008333 -0.044575986
-0.030603202 0.044097453 0.00049472164 0.005007382 0.009008461 0.023216093 -0.014573067 0.03648121
0.007896729 -0.013144154 -0.00010682343 -0.04097087 0.023970686 -0.026379125 -0.010662688 -0.035240907
0.027973013 -0.001775484 0.040860817 -0.048993498 -0.020648384 -9.51979e-05 0.001909411 0.038334206
0.0006256248 -0.012003878 0.02497812 -0.02695948 0.04013307 -0.017758753 -0.030135088 0.006256014
0.014917967 -0.028182711 -0.04320892 -0.026294138 0.044106897 -0.012965525 0.031896763 -0.04862918
0.026491137 -0.04608756 -0.03471919 -0.048956573 0.0075379214 0.029936427 0.014731354 0.037860163
-0.02994391 0.037058353 0.0555874 0.049440965 -0.025552312 -0.03870482 0.028020311 -0.0108120935
-0.029575666 -0.03463772 0.02370603 -0.044268608 0.022918245 -0.007633826 -0.046966087 0.041512374
-0.038561013 0.02108183 -0.03728802 -0.021601923 -0.0016415692 -0.033664294 0.0032057331 -0.047516845
-0.0246858 0.018378085 0.004554108 -0.044532526 -0.034542933 0.046460137 0.003918983 0.002856801
-0.01279513 -0.046968687 0.01478233 0.035749424 -0.0037291194 -0.024275718 0.03159199 -0.019969787
0.01319383 0.020055687 -0.039112825 0.0042877207 -0.001200385 0.007624637 -0.024310924 0.00089362025
-0.018877273 -0.013281241 0.022758093 0.0022041837 -0.030586105 0.014494334 -0.03573764 0.001360005
-0.045644235 -0.017843401 -0.03470329 0.026516961 0.043280244 0.0073147435 0.044764224 -0.045549404
-0.024062293 -0.026685355 -0.0010296011 0.01560156 0.02920574 0.042671897 0.032962963 0.03686516
0.0061436244 -0.013218578 -0.039954994 -0.025087366 -0.013029117 0.0017615454 -0.03918993 0.014274208
-0.022222828 -0.020024003 0.0038946632 -0.008862339 0.006590995 -0.03610957 -0.030216629 0.007066902
-0.012761412 0.04968116 0.026783545 -0.0056843148 -0.018218195 -0.03616023 -0.04539366 -0.006699045
-0.026862953 0.040276233 0.04905487 0.015886564 -0.018859174 0.03764838 -0.007169965 0.012829709
-0.043843493 0.028482946 -0.040224537 0.014957392 0.021632483 0.030238718 0.00511359 0.015301388
0.04775383 0.004908508 -0.013239114 0.012994689 -0.04903532 0.034752514 -0.037613057 0.032099683
0.02381821 0.0070598056 0.037096843 -0.0017928643 -0.04626209 0.03845624 -0.044740446 -0.0240829
-0.021411808 -0.0019618906 -0.041916665 -0.0051860367 -0.037249554 0.030982915 0.045366853 -0.026420288
-0.021482455 -0.042528722 -0.016636457 0.046283506 0.03521227 -0.010791894 -0.038299877 0.01553418
0.0409755 -0.009132195 -0.002440047 0.035271905 -0.019039663 0.005872308 -0.028993575 0.044027306
0.0030698434 0.01720643 -0.033440676 -0.042808313 0.017302955 0.0076897643 0.01223102 0.009086895

7.bias f4 [120]
00000000: f5ea 5fbc 02e5 013b 033d 4b3d 79ba 983d
00000010: ae6b 24bd 767b 2f3d f243 4c3d 4f78 d73c
00000020: 24a2 033d 6b03 4bbd 2dbc c8bc 0feb 2c3d
00000030: 1308 f5bc 1548 33bc 2e45 13bd 92ea c3bb
00000040: 793c e6bc cf36 71bb 6eea 3cbc 8e45 52bd
00000050: 52f0 e03c 9cee f6bb f623 b8bb 69fe 36bc
00000060: a31b 1abd 329c 2bbb 7051 633d 4356 be3c
00000070: 4cc5 21bc 8d73 3a3d 35b9 30b9 5684 433d
00000080: d3a8 b63b 9c93 c23b 33ac 1e3d 0b8d 173c
00000090: cddc 223d fd89 703d 3cd9 213d 2c05 663d
000000a0: 9911 dcbb b3a2 0a3d ea56 bebc f125 c53c
000000b0: 0830 2bbc a8ec 593d 7fcb bcbc 2dda ef3c
000000c0: e36e 573c be42 853c 5d3e 47bd 5fbd 0abd
000000d0: af5b 1dbd 2788 443d fc07 4eba 3975 3d3d
000000e0: 6818 03bd f655 a7bb dec6 eb3c d9d4 913c
000000f0: 5799 1e3c 24b2 033d 27dc f93c 2ec4 39bc
00000100: 85c8 c9bc d833 9f3c 28ad 133d 2304 973c
00000110: ae68 653d 84c0 573d ff64 0dbc d24e e0bb
00000120: 2f25 0ebd 4071 393d 4ec8 06bc fd37 12bd
00000130: b8fa 7bb8 27d9 10bc d523 103c 667e d23c
00000140: a6cf 0ebd 1855 2abc 6624 573d b6d4 35bd
00000150: a027 3b3d e3ff c2bc 10d8 c9bc 65af 94bb
00000160: 33e4 793b b625 473c a676 46bd 461d 593d
00000170: 86d9 733d 7321 f23c 194a e23c 26e7 893c
00000180: f5c1 983c 3409 b9bc 9243 8ebc 9af4 953c
00000190: 3893 65bc a9fe 6dbc a294 ddbc 21cb cf3c
000001a0: 9b69 45bb e4e2 e4bc e2ac 3c3d b49e 323d
000001b0: 5617 01bc b23e d0bc 4154 edbc 769f 35bd
000001c0: c268 3b3c e8e4 1ebc c57a 21bd dde2 143d
000001d0: b54c dc3c 86fc 29bd a0f3 c5bb 2fc7 4dbc
-0.013666858 0.0019820337 0.049618732 0.07457442 -0.040141754 0.04284235 0.049869485 0.026302485
0.03213705 -0.049563807 -0.024503792 0.042216357 -0.029911077 -0.010942479 -0.035954647 -0.0059788907
-0.028105007 -0.003680635 -0.011530502 -0.051335864 0.027458344 -0.0075357687 -0.0056195213 -0.011169055
-0.037624013 -0.002618563 0.055497587 0.023234492 -0.009873699 0.045520354 -0.00016853663 0.047733627
0.0055743246 0.0059380066 0.03873844 0.009249936 0.039761353 0.058725346 0.03951381 0.056157276
-0.006715965 0.03384657 -0.023234803 0.024065943 -0.010448463 0.05320421 -0.023046253 0.029278839
0.013148996 0.016267177 -0.04864346 -0.033872005 -0.038417514 0.047981407 -0.0007859466 0.04625437
-0.032005697 -0.005106683 0.02878135 0.017801689 0.009680114 0.03215231 0.030500485 -0.011338277
-0.024631748 0.0194339 0.036053807 0.01843459 0.056008033 0.05267383 -0.008630036 -0.0068453336
-0.03470343 0.04527402 -0.008226467 -0.035697926 -6.0076563e-05 -0.008840836 0.0087976055 0.025695037
-0.034865998 -0.0103962645 0.052524947 -0.04439231 0.045692086 -0.023803657 -0.02463916 -0.00453751
0.0038130402 0.012154987 -0.048452996 0.053006433 0.05953362 0.029556965 0.027623223 0.016833853
0.018647173 -0.022587396 -0.017366204 0.018305112 -0.0140121505 -0.014526048 -0.027048413 0.025365414
-0.003012276 -0.027940221 0.04606331 0.043608382 -0.007879099 -0.02542052 -0.02897084 -0.044341527
0.01143855 -0.00969813 -0.039423723 0.036349166 0.026892046 -0.04150059 -0.0060410053 -0.012559696

9.weight f4 [84, 120]
00000000: 23e5 b13d cab2 55bd 5b26 923d 7705 db3d
00000010: 55b4 01bd 1c80 8b3d 2320 993d 2a33 903b
00000020: 1eb1 e3bd 591f 1fbd 6d32 c53d c451 a13d
00000030: db6d e6bc eb5f 693d 582f b23c 16a8 16be
00000040: 5816 933d 1201 053d 0e68 2b3e 5fb2 63bd
00000050: 6a52 debd 3daa c63c 81e2 13bd b7e7 8c3d
00000060: e321 aebb 73c3 2cbd f027 4b3d 17b2 593d
00000070: 3a4a 7b3d ba4a 26bd 43df 9b3d 75e5 043d
00000080: 5ac1 94bd dfe9 d53d daf4 183d 6079 6ebd
00000090: ee2f 2e3c 5df8 633c 4cd8 033e 289c c93c
000000a0: 1244 d2bd 22d6 1c3d 9ca0 d93c 25a6 643c
000000b0: 8d1f f53d 0600 7abc 7c09 943d 3290 4bbd
000000c0: f908 d2bc dcf9 28bb bc8c abbd 5fe8 d0bc
000000d0: 3dfa cbbd d74a 2f3d d9c0 4abd 1fa9 87bc
000000e0: 7d27 953c 5bad 8bbd 31af e7bc 27b6 b03d
000000f0: a88f bebc c701 ddbc 0e42 703d 6870 e3bd
00000100: 0f49 cd3c 5402 e0bd 0c1f 96bc eec2 a83c
00000110: 3e2e 703d 3dbb 37bc ed4b b33d 21d8 eb3d
00000120: 911b 903c 33c8 1b3b 7f2a 0a3e 6f5a 8cbd
00000130: e64f 113d 9bb1 0d3d 2420 83bd 8bd3 a0bd
00000140: 453b b23d 792f dc3d 33ae 92bb 5efd 963d
00000150: 9a5d 8abc af3f 33bd b561 963d 8cca 223d
00000160: 2bc4 85bd 276a a53d 715b 053d edfa 94bd
00000170: 0044 81bc d911 ed3c b8c2 e73d 8c76 21be
00000180: 7fca 033e 78f8 f43d e1d4 7f3d e119 d23d
00000190: d66e 9fbc ae4b c7bc 3a01 9dbd 8c6c d63c
000001a0: f0e9 b1bd fd35 213d 907f d43d f764 fe3b
000001b0: 5748 40bd fe3a 753c aa40 dd3c 9211 0b3e
000001c0: 13d8 0abd b7dc 44bd 69bd 973d bbe9 30bd
000001d0: c81d cd3c c47a 0ebd cc84 173c 55e9 6c3d
000001e0: 7c86 053d de2c 353e c9d0 0cbd e4b1 b83d
000001f0: 4ee5 b9bd 2465 cb3d c1d7 1abe 26ba be3b
00000200: 8969 23bc 2f0b 95bc 8200 403c 63a6 67bd
00000210: f96c bfbd edf2 b03d 436d cebd 00e6 133c
00000220: 4a25 bfbd 0edc 933d 7406 103e 7d54 f03d
00000230: 3972 b9bd 1508 873d 51bc 1b3d f1cb 73bd
00000240: 9610 f43c 29d8 f23d 3b5b d33d 9ca9 683d
00000250: 48c2 393d 2ec6 e6bc bc56 02be d3d3 dabd
00000260: e584 093e e1a6 bcbd d9fb ed3d d1b7 993d
00000270: 1593 3abe 5414 8ebd 8d89 14bd cade 8c3c
00000280: 8654 5b3b 0e08 08be 3495 bc3c 167c d6bb
00000290: 05da 80bd e1e2 073d 7f25 7ebd f55a 4dbd
000002a0: 7155 023d 1c4d 933b db94 973c ad32 af3d
000002b0: 906e 883c 2c5c 793d 366c b3bd bb71 d8bb
000002c0: dc8c ffbd 9405 7a3d 87b0 c9bd ff36 b93d
000002d0: 03c6 15be 081b ed3d fbe0 03bc cf22 63bd
000002e0: b7ea 1cbd a872 853b 137b 123e 9253 a63c
000002f0: 9e4f f33c 93ec 00bd 449a a03d c613 e0bc
00000300: 3dd3 953b 3a96 49be be35 b0bc 7528 a4bd
00000310: cd53 f23d 62d1 a6bd 663c 22be 405e 333d
00000320: 452e 2dbb 15ca b0bc c4e8 c9bd b538 1dbd
00000330: 1ab3 383d 0174 89bc 854d 94bc 76c2 913d
00000340: 5851 61bd bab2 123d 442e 24be 1d25 db3d
00000350: cf42 0fbd 83b9 583c a83a b13a bdd6 bbbd
00000360: 1a4b a8bd 09bc 883d 895e dcbc 7922 96bd
00000370: 1b87 c23d faa3 84bd c5b0 f33d 9011 0c3e
00000380: 2a2f b13d d074 f8bb eb4f 233c f62c 16bd
00000390: bbf6 c53d a8ce aa3d bd74 303d 824b 553e
000003a0: 46a0 b43d f0d6 8e3d 3f7f c8bd 2153 d53d
000003b0: 663a b4bd feae bb3d b08e 8fbd 012b 1c3e
000003c0: f4d2 8bbc cf66 de3d 8ba8 0dbe 9612 4b3d
000003d0: 113d d53c 5c24 ac3c d4cf 10be f6a0 383e
000003e0: 04d6 15be c36c 463d 673f 99bd 1868 20bd
000003f0: 9085 05be ecf4 173e ba2a 07bd 17c8 963d
0.086862825 -0.05217246 0.07136222 0.10694402 -0.03166612 0.06811544 0.07476833 0.0044006305
-0.11117767 -0.038848255 0.096287586 0.07876924 -0.028128555 0.05697624 0.02175109 -0.14712557
0.07181996 0.032471724 0.16738912 -0.05559003 -0.10855563 0.024251098 -0.036104683 0.068801336
-0.005314098 -0.042178582 0.049598634 0.053148355 0.061350085 -0.04059861 0.07610943 0.03244539
-0.072634414 0.10444998 0.037342884 -0.05822122 0.0106315445 0.013914195 0.1287548 0.024610594
-0.1026689 0.03829015 0.026565842 0.013955628 0.119689085 -0.015258795 0.072283715 -0.049698062
-0.025639044 -0.0025783693 -0.08376452 -0.025501428 -0.099598385 0.042795982 -0.04950032 -0.016560135
0.018207306 -0.06820174 -0.02828178 0.08628493 -0.02326186 -0.026978387 0.058656745 -0.11105424
0.025059251 -0.10937944 -0.018325351 0.020600762 0.05863785 -0.011214075 0.08754716 0.11515833
0.01759127 0.002377045 0.13492773 -0.06853186 0.035476588 0.034593206 -0.06402615 -0.078528486
0.08702711 0.10751242 -0.0044763326 0.07372545 -0.016890336 -0.043761905 0.07342855 0.039743945
-0.06531557 0.080768876 0.03255791 -0.07274423 -0.015779495 0.028939174 0.113164365 -0.15767878
0.12870215 0.11961454 0.062458877 0.10258842 -0.01946203 -0.02432808 -0.076662496 0.026174806
-0.08687198 0.039358128 0.10375893 0.007763501 -0.04694399 0.014967678 0.027008373 0.13580921
-0.03389747 -0.048062053 0.07409174 -0.043191653 0.025038615 -0.034785047 0.00924797 0.05783971
0.032598957 0.17692897 -0.0343788 0.09018305 -0.090769395 0.099314004 -0.15121366 0.0058205305
-0.009973892 -0.01819381 0.011718871 -0.056555163 -0.09346957 0.086400844 -0.10079434 0.009027004
-0.09333284 0.072197065 0.14064962 0.11734865 -0.09054989 0.065933384 0.03802139 -0.059520666
0.029793065 0.118576355 0.10320135 0.056802377 0.045351297 -0.028170671 -0.12728399 -0.106849335
0.13429601 -0.09211517 0.11620302 0.07505763 -0.1822017 -0.06937471 -0.03626399 0.017196078
0.0033467128 -0.13284323 0.023020364 -0.006545554 -0.06291584 0.033175353 -0.062047478 -0.05013557
0.031819765 0.004495276 0.018503597 0.085545875 0.016654283 0.060878918 -0.08760874 -0.0066053546
-0.12478039 0.061040476 -0.09848123 0.09043693 -0.14626317 0.115774214 -0.008049245 -0.055453118
-0.03830978 0.004072506 0.14304762 0.020303521 0.02970105 -0.031475615 0.07841924 -0.027353179
0.0045723007 -0.19686213 -0.021510001 -0.08015529 0.1183239 -0.08145405 -0.15843353 0.043791056
-0.0026425284 -0.021580735 -0.0985885 -0.03838416 0.04509268 -0.016778948 -0.01810337 0.071171686
-0.055009216 0.03581498 -0.16033274 0.10700438 -0.034975823 0.013227823 0.0013521509 -0.091718175
-0.082174495 0.0667649 -0.026900547 -0.07330794 0.094984256 -0.064765885 0.118989505 0.13678575
0.08651574 -0.0075822845 0.009967784 -0.03666397 0.09666201 0.08340198 0.04308008 0.20829585
0.08819632 0.0697459 -0.09789895 0.10416246 -0.08800201 0.091642365 -0.07009637 0.1525078
-0.017068364 0.10859453 -0.13833825 0.04957827 0.026030095 0.021013431 -0.1414178 0.18030152
-0.14632422 0.048443567 -0.07482796 -0.03916177 -0.13039231 0.14839524 -0.03299973 0.07362383

9.bias f4 [84]
00000000: 3ad2 d4bc 5a69 1bbc eb5f b23d d7bf 523d
00000010: dcee 273d 64c3 babd 9f93 f93d f254 f33c
00000020: 9ea1 e4bc bf91 04bd 30f1 6cbd c60f 493d
00000030: 8a9f 153d 5f3c de3d a9fe acbc 5ca8 163d
00000040: ba5d a03d 5432 7dbd 3768 c03d 79cf 68bc
00000050: 2d7b 84bd fe4b 3abb fe8d 723d 2666 a03d
00000060: 538e 143d 095d 313d 98b0 42bd a8dc 84bd
00000070: 825f 01bd f63e aa3d bf42 1dbd 099f aebd
00000080: 4165 0e3c 22af b6bc bbe6 99bc 9ad4 9b3d
00000090: 128d bb3d 7288 c43d a75e 8e3d af89 903d
000000a0: 4e92 dabc 8ee7 913d 278d 453d 49d8 7bbd
000000b0: 7c1c 923d dee4 cbbc a4ae 4dbd 65fb 60bc
000000c0: 92ab d63d fed7 42bd 7449 3abd 0336 e23d
000000d0: bb7a 10bd 79b9 aabd a566 b53d da7f 323d
000000e0: caf4 f93d 9241 41bc ff22 0a3d eaea d63d
000000f0: 7e35 123d 8871 bf3d eb70 9f3a cde2 ac3d
00000100: 2b1d 013e f3b0 4bbd e9fb 9e3d 043b 20bc
00000110: 18e8 b53d 8f82 133e 6d53 cf3d 3689 5b3d
00000120: 8979 8b3d e679 9ebd 8ef6 6eb9 c802 2d3d
00000130: 4202 563d 2589 963c 74e8 f3bc f529 7dbd
00000140: 2612 e83b e851 dabc cc8d f5ba 7b47 3ebd
-0.02597915 -0.009485567 0.08709701 0.051452484 0.04099928 -0.09119299 0.121863596 0.029703591
-0.027909096 -0.032365557 -0.0578472 0.04908731 0.0365291 0.108513586 -0.021117525 0.036781654
0.07830377 -0.061815575 0.093948774 -0.014209622 -0.064688064 -0.0028426643 0.059217446 0.07831983
0.036268543 0.043301616 -0.047531694 -0.06487399 -0.031585224 0.0831279 -0.038393732 -0.08526427
0.008691133 -0.022300307 -0.018786779 0.0760891 0.091577664 0.095963374 0.06951647 0.07057511
-0.026681092 0.07124244 0.048230316 -0.061485562 0.07134339 -0.024889406 -0.05021538 -0.013731812
0.10481943 -0.047569267 -0.045480207 0.11045458 -0.035273295 -0.08336157 0.088574685 0.04357896
0.12204893 -0.011795418 0.03372478 0.10494025 0.035695545 0.09347826 0.001216439 0.08441696
0.12608783 -0.0497293 0.07762892 -0.009779695 0.08882159 0.14405273 0.10123334 0.05359765
0.0681029 -0.07738094 -0.00022789298 0.04223898 0.052248247 0.018375942 -0.029773928 -0.06180759
0.0070822416 -0.026650384 -0.0018734275 -0.046454888

11.weight f4 [10, 84]
00000000: b8f8 bd3e e46c 49be c316 31be 437d 0b3e
00000010: 080c e5bd 283a d63d bdb3 6b3d 58db 273e
00000020: 5930 67bd 8a18 853e 8a7d af3d fb4e f63d
00000030: bbc0 d23d 08e8 e2bd 66b4 02be 5dd7 c5bc
00000040: e38c 43be c8a2 44bd 5bfa 853e cfeb a4bd
00000050: a5b4 4bbd a112 06bd a41a f0bd c488 2bbe
00000060: 88b3 b33d 96ed b6bc 5606 953e 5762 9ebd
00000070: b9c2 f33d 535a 423c 5d04 d53d 20f8 853d
00000080: 2ca0 2cbe c061 e83d d317 c13d e030 47bd
00000090: 9740 5a3d 169a acbd 0acf 0bbe b56a a9bd
000000a0: 9e4a b5bd 9fb5 a5bd d917 c4bd 451a 3dbd
000000b0: 5837 86be e0c1 b43b 5402 2ebd f346 4b3e
000000c0: e3a6 c0be c47c 4dbd bd12 d5bd f9e0 c5bc
000000d0: f348 04be c062 8f3e 86ef 213d dfb4 443e
000000e0: 6a7f 41be 95c8 dfbb 8924 d9bd 557b 973e
000000f0: ce0b ca3c 0e66 613e a994 8bbd a153 c7be
00000100: e7df aebc db27 07be 0b94 cbbd 0452 a03d
00000110: 427d 8fbe 72ce fe3c f3d6 19be 2f3f 45be
00000120: 920c 74be e463 d23d b3b8 4a3c 342f a53b
00000130: 24a9 4b3d 7bf6 a23e 4988 08bd 763b 103b
00000140: 01c0 eebd 889c d8bd 80c4 993d 75a1 bcbd
00000150: 5bef 5cbe 40f1 193e 0e32 653e 2564 02be
00000160: 2ec0 a2be a55c 3d3d 719c 513e 5d78 ea3c
00000170: 708d bd3d 1ec4 09be 9070 50be edeb 30bb
00000180: 318f 8c3e d788 7b3e 0d99 013e 6758 653d
00000190: 291d 9ebe 88c7 fdbd d746 1c3b d221 30be
000001a0: 880b b83c 7827 26be e926 43be 2a8e 3cbe
000001b0: 3150 723c d2ea 12bc ab45 74bd e15e 9f3c
000001c0: 9564 68be bcf5 d33e 6652 ac3d 0be6 58bd
000001d0: 7dd3 32bd 27a4 1abe 55ab e4bc c7f3 043e
000001e0: ebdd 2dbe c965 083e deda 0bbe 5ee7 9d3e
000001f0: b53d e53d e6be 4dbe 1a27 1b3d ee1a ac3d
00000200: 306b 5abc 4ecd 733e 7ea1 203d 4980 8b3c
00000210: 6a12 213e 6a05 113d aef5 ca3c c4f1 2f3e
00000220: 4ade a03e 5eb0 d6bc ae18 893e 938c 44be
00000230: dd93 633e b160 bf3d 0a77 d0bd 558b 0ebd
00000240: 051e f8bd 3a53 3cbb c749 0e3e b7c3 2a3e
00000250: 890b 39be 03a1 b4bd ab94 ddbd 9d0c 183d
00000260: 1514 d63d 433f 93be 31eb 7b3d 3018 7c3d
00000270: 75c4 2c3e f8ca 79bd 8b02 0a3e 1ac3 1cbe
00000280: 6266 5cbe 0ebd 76be 1357 603d 8f00 cdbb
00000290: 58a5 81be d369 7abe f8cd b8bd 35e4 f73d
000002a0: 75e3 18be e85a 01be 11d5 a9bd c249 a13c
000002b0: bf15 573e e3d8 02be 8887 8cbe e889 133d
000002c0: 3d6d 273d 5031 41be 731f e6bd b561 c73e
000002d0: 7cf0 19be 666f 0cbd 96eb e83c 8d0b e23d
000002e0: 1b32 ebbd 8d21 a93d 3abd 533e b256 88bd
000002f0: a301 673c ae64 c0ba 2fa8 f0bd bc48 2f3c
00000300: 90fb 9f3d 7055 1d3d 43c9 6a3d 7f8f 87bd
00000310: a4f5 4f3e fad8 27be b36d d4bd 62a4 e9bc
00000320: dfa5 2cbe 7b78 eabd 810d 29bd 043d a63e
00000330: 41dc 38be 318d 083e c719 72be 663a 2fbd
00000340: e042 03bd 376a 31bd ccdc 9f3d ac21 1f3e
00000350: ba21 b2bd 445c 28bd 8c80 aa3c 5843 c43d
00000360: 59a1 08bd 24c9 60bb 1648 97bd 6ad9 cebd
00000370: 594d 8cbd 3e54 08be a608 a83e a52b 68be
00000380: c2ca 27bd ca66 d73c cd00 fcbc 154d a53d
00000390: e9a4 253d 799a 8e3e 3a9c 083d 86c7 263e
000003a0: bdd9 d6bd 2c80 00bd 305b c43d ddb1 a33c
000003b0: 2ee8 d53e 8df9 60be 6587 25bd dd80 efbd
000003c0: 2cfc 97bd 53bc d2bd 116d 863e 457e babc
000003d0: e1d3 0cbe 5ddb 003e 5c85 f2bc 277b 0bbc
000003e0: 6ad2 0a3e a814 e7bd 0da1 de3d 3711 6ebc
000003f0: 992b e83c 1bc9 4dbe 9e6f 7b3e b56e 2cbe
0.3710382 -0.19670445 -0.17293839 0.13622002 -0.111839354 0.10460311 0.05754446 0.16392267
-0.056442592 0.25995284 0.085688666 0.12026783 0.10290667 -0.11079413 -0.12764129 -0.024150545
-0.19096713 -0.048006803 0.2616757 -0.080527894 -0.049732823 -0.03273261 -0.11723831 -0.1675139
0.08774477 -0.022330087 0.29106396 -0.077336006 0.11902375 0.011862355 0.10401223 0.06541467
-0.16857976 0.11346769 0.09428372 -0.048630595 0.053284254 -0.08427827 -0.13653198 -0.08272306
-0.08852123 -0.08091282 -0.09574861 -0.04616763 -0.262141 0.0055162758 -0.04248269 0.19851284
-0.37627324 -0.050167814 -0.10403965 -0.024155127 -0.12918453 0.28005028 0.039535068 0.19209622
-0.18896261 -0.006829331 -0.10602672 0.29586282 0.024663832 0.22011587 -0.06815464 -0.3893099
-0.021347 -0.13198797 -0.09940346 0.07828143 -0.28025252 0.0311043 -0.15023403 -0.19262384
-0.2383292 0.10272959 0.012373137 0.0050410274 0.049721852 0.31828675 -0.033333097 0.0022008098
-0.116577156 -0.10576731 0.075081825 -0.09210483 -0.21575682 0.15033436 0.22382376 -0.12733515
-0.31787246 0.04623093 0.20469834 0.028621847 0.09255493 -0.13453719 -0.20355439 -0.0026996091
0.27452996 0.24563919 0.1265604 0.05599251 -0.30881622 -0.12391573 0.0023845935 -0.17200401
0.022466436 -0.16225994 -0.19057812 -0.18413606 0.014789627 -0.008967118 -0.059636753 0.019454421
-0.22694619 0.41398418 0.08414154 -0.05295376 -0.043658722 -0.15101682 -0.027913729 0.12983619
-0.16979186 0.13320078 -0.1365771 0.30840582 0.1119341 -0.20092353 0.037879087 0.08403574
-0.01333122 0.23808786 0.03921651 0.017028945 0.1572968 0.035405554 0.024775352 0.1718207
0.31419593 -0.026207145 0.26776642 -0.1919425 0.22224374 0.09344614 -0.10178955 -0.034800846
-0.12115101 -0.002873613 0.13895331 0.16676222 -0.18070807 -0.08819773 -0.10819372 0.037121404
0.10453049 -0.28759202 0.061503593 0.061546504 0.16871817 -0.06098458 0.13477533 -0.153088
-0.21523431 -0.24095556 0.05477054 -0.00625617 -0.2532146 -0.24454431 -0.090236604 0.12104074
-0.14930518 -0.12632334 -0.08292592 0.01968849 0.21004389 -0.12778048 -0.27447152 0.03602019
0.040875662 -0.18866467 -0.11236467 0.38941732 -0.15033144 -0.034285925 0.028432649 0.110373594
-0.11484166 0.082583524 0.20677653 -0.06657161 0.014099511 -0.0014678442 -0.117508285 0.010698494
0.078116536 0.038411558 0.057320844 -0.066191666 0.20308548 -0.16391364 -0.10372486 -0.028520767
-0.1686015 -0.11448761 -0.041272644 0.32468426 -0.1805277 0.1333511 -0.23642646 -0.042780302
-0.0320462 -0.043314185 0.078057855 0.15540189 -0.08697839 -0.041103616 0.020813249 0.09583157
-0.033356998 -0.0034299577 -0.07386796 -0.10100062 -0.068506904 -0.13313386 0.32819098 -0.22672899
-0.04096485 0.02629413 -0.0307621 0.08071343 0.040440474 0.27852228 0.033352114 0.1628705
-0.10490749 -0.031372234 0.09587705 0.019982273 0.41778702 -0.21970196 -0.040412325 -0.116945006
-0.07421145 -0.10289826 0.26255086 -0.022765288 -0.137527 0.1258368 -0.029604606 -0.0085132485
0.13556829 -0.11283237 0.10870562 -0.0145304715 0.028341101 -0.20096247 0.24554297 -0.16839106

11.bias f4 [10]
00000000: 32e3 1dbd 6429 9b3d f6c3 91bd cf69 fbbc
00000010: 4275 e93c 53ad 3f3d 164c b4bd b95d 083d
00000020: e1fe 0e3e 41fe f53d
-0.03854675 0.07576254 -0.07117455 -0.030690102 0.028498296 0.046796154 -0.08803575 0.033292506
0.13964416 0.12011386
